VAEencoder.onnx (onnx, 805301 bytes, 22 tensors)

cv1.weight f4 [16, 3, 2, 2]
0	0xbe37599a	-0.17905274
1	0xbe3d19c0	-0.18466854
2	0xbca4f0ce	-0.020134356
3	0xbd4f4571	-0.050603334
4	0xbe74f147	-0.23920165
5	0x3be10174	0.0068666283
6	0xbecd014d	-0.40040055
7	0xbedf65c1	-0.4363232
8	0xbbf48e19	-0.0074632284
9	0x3e4590d3	0.19293527
10	0xbde17826	-0.110092446
11	0xbd7cd1b7	-0.061723437
12	0x3e0774f4	0.13228208
13	0x3df8a92b	0.12141641
14	0xbe05c03d	-0.13061614
15	0x3e451d40	0.19249439
16	0xbda441c9	-0.0802036
17	0xbd421b34	-0.047389224
18	0x3e9561d6	0.29176205
19	0x3e04bf1f	0.12963532
20	0x3e84734f	0.25869223
21	0x3bd4dcc6	0.006496045
22	0xbc93e0ff	-0.018051622
23	0x3d76ef3a	0.060286738
24	0xbe37b51b	-0.1794018
25	0x3e42f1ac	0.19037503
26	0xbe6195ce	-0.22029802
27	0x3e57ba15	0.21067078
28	0xbd922d34	-0.07137528
29	0x3e52c54d	0.20583077
30	0xbeafe7c7	-0.3435652
31	0x3e5202a0	0.20508814
32	0xbcadadd8	-0.02120106
33	0x3e84ed92	0.25962502
34	0xbe1b5e12	-0.15172604
35	0xbdac9c18	-0.0842821
36	0xbe13c485	-0.14430435
37	0xbe8aaa05	-0.2708284
38	0x3e9ffc3b	0.31247124
39	0x3dd0f88a	0.10203655
40	0x3d278526	0.040898465
41	0xbe30fbb9	-0.17283525
42	0x3e26dc7d	0.16295047
43	0x3d415085	0.04719593
44	0xbd8c42f7	-0.0684871
45	0xbe92970b	-0.28630862
46	0x3e42599e	0.18979499
47	0x3e173e67	0.14769898
48	0x3d48da82	0.04903651
49	0xbd56edd0	-0.05247289
50	0x3ca11c71	0.019666882
51	0x3eefb2c8	0.46816087
52	0x3e9493cd	0.29019013
53	0x3e710a5b	0.23539107
54	0xbd39f0d3	-0.045395683
55	0x3e6ac84f	0.22927974
56	0x3d79414a	0.06085328
57	0xbb82ca05	-0.0039913678
58	0xbd2459d0	-0.040124714
59	0x3e5e9552	0.21736649
60	0xbe855995	-0.26044908
61	0x3d172d44	0.036908403
62	0x3ea12012	0.3146978
63	0x3eae0716	0.3398978
64	0xbe9a5e0b	-0.30149874
65	0x3e0a0f00	0.13482285
66	0x3dbc4a84	0.091939
67	0xbe043fa4	-0.12914902
68	0xbdd5e35e	-0.104437575
69	0x3de03181	0.10946942
70	0xbdf55d07	-0.11980634
71	0x3e34642c	0.17616338
72	0xbdfb6ed6	-0.12277
73	0xbd494a61	-0.0491432
74	0xbe2970b0	-0.16546893
75	0xbe6abfcc	-0.22924727
76	0x3d2ac005	0.04168703
77	0xbe74063f	-0.23830508
78	0xbe8ae5a8	-0.2712834
79	0x3b783777	0.0037874856
80	0xbdbe7e53	-0.09301438
81	0x3d38a958	0.045083374
82	0x3e26e35c	0.16297668
83	0xbdd1e0cf	-0.10247957
84	0x3e27de08	0.16393292
85	0xbcf2c901	-0.029636862
86	0x3e387ab0	0.18015552
87	0x3cec6278	0.028855547
88	0x3e66717a	0.22504225
89	0x3dbcf9f1	0.0922736
90	0x3e36b87c	0.17843813
91	0x3eb816a2	0.35954767
92	0xbe1fbab3	-0.15598564
93	0x3e197784	0.14986998
94	0x3e1c307a	0.15252867
95	0xbe1c7de2	-0.15282395
96	0xbdd36d13	-0.10323539
97	0x3e96f47d	0.29483405
98	0x3e9b055f	0.30277535
99	0x3dc76f8c	0.09738073
100	0x3dd76cc9	0.10518796
101	0x3dc42101	0.095766075
102	0xbbcebdba	-0.0063092383
103	0x3e5a0bbd	0.2129354
104	0x3d4ed404	0.050495163
105	0x3e2c62c5	0.16834553
106	0x3e57726e	0.21039745
107	0xbe5bd032	-0.21466139
108	0x3e8075ef	0.25089976
109	0x3e8871d0	0.26649332
110	0x3df2a66d	0.118481494
111	0x3d09d230	0.033647716
112	0x3e4005d8	0.18752229
113	0xbc8e0ab8	-0.017339095
114	0xbcbcf9d7	-0.023068352
115	0xbcc434db	-0.023950985
116	0x3ec58e6a	0.38585216
117	0xbd996ece	-0.074918374
118	0x3d7bc48a	0.06146673
119	0xbe486512	-0.19569805
120	0xbe4160bc	-0.18884557
121	0xbd510755	-0.051032383
122	0xbe173b1c	-0.14768642
123	0xbe8a4f31	-0.27013543
124	0x3e2db5ca	0.16963878
125	0x3cb1b751	0.021693857
126	0x3daa2695	0.0830814
127	0x3d1cf699	0.03832111
128	0xbdc26bb9	-0.09493203
129	0x3e5ac4e8	0.21364176
130	0x3e4bd7cf	0.19906543
131	0x3e80c2af	0.25148532
132	0x3d21bf69	0.039489184
133	0x3d9e9a19	0.077442355
134	0x3bdc05e6	0.0067145703
135	0x3d7f0c49	0.062267575
136	0x3e272b79	0.16325177
137	0x3e914495	0.28372636
138	0xbd33a462	-0.04385794
139	0xbd7e6826	-0.062111042
140	0x3c6bd8ed	0.014394981
141	0xbca7d72f	-0.02048835
142	0x3e83e4d4	0.2576052
143	0xbdc7d5b2	-0.09757556
144	0x3e6ffc19	0.23436011
145	0xbe2ca820	-0.1686101
146	0xbda20b7e	-0.07912348
147	0x3c687435	0.014187862
148	0x3e9f1e5b	0.31077847
149	0xbe6ef1bf	-0.23334406
150	0x3e267771	0.16256501
151	0xbe79a30f	-0.24378608
152	0x3e65ee09	0.22454084
153	0xbd67987b	-0.0565419
154	0x3de56336	0.112005636
155	0xbe8ddac0	-0.27705956
156	0xbf000b4f	-0.50017256
157	0xbe81310d	-0.25232735
158	0xbd81e515	-0.06342522
159	0xb9ddc49e	-0.00042298896
160	0xbead1139	-0.33802202
161	0xbe35bb52	-0.17747238
162	0xbd98c576	-0.07459538
163	0x3eccb6aa	0.39983112
164	0xbcf7183f	-0.030162929
165	0xbe278c04	-0.16362005
166	0xbe628da9	-0.22124352
167	0x3e5cb286	0.21552476
168	0x3df2a2ef	0.11847483
169	0x3e7b1bd3	0.24522333
170	0xbe715231	-0.2356651
171	0xbe196beb	-0.14982574
172	0x3e7fa9fa	0.24967185
173	0x3e241a98	0.1602577
174	0x3c578eed	0.013156635
175	0xbdd27bfa	-0.10277553
176	0x3e93f584	0.2889825
177	0x3e0b95b2	0.13631323
178	0xbe67f2d3	-0.22651224
179	0xbe87008c	-0.26367605
180	0xbe258cfd	-0.16167064
181	0xbe0a4dd1	-0.13506247
182	0xbe202071	-0.15637375
183	0xbec05d04	-0.37570965
184	0xbdf1ca93	-0.11806216
185	0xbeb1d85b	-0.3473538
186	0xbdfa4756	-0.122206375
187	0xbed9428f	-0.42433593
188	0xbe407c63	-0.1879745
189	0x3d3c86ad	0.046026874
190	0x3d91f522	0.071268335
191	0xbe800930	-0.2500701

cv1.bias f4 [16]
0	0x3e48b010	0.19598413
1	0xbeb25806	-0.34832782
2	0xb9ca4417	-0.00038579173
3	0x3d7781db	0.060426574
4	0x3e0e83e0	0.13917494
5	0x3e95eb45	0.2928106
6	0xbf1e90be	-0.6193961
7	0xbe1f30c4	-0.15545946
8	0x3df4aa3d	0.11946533
9	0x3cd025cc	0.025408648
10	0x3ed64c36	0.4185502
11	0xbee56b99	-0.44808653
12	0xba3928f0	-0.000706329
13	0xbd165e51	-0.03671104
14	0x3e899ee6	0.26879042
15	0xbe5e2e59	-0.21697368

cv2.weight f4 [32, 16, 3, 3]
0	0x3d88a602	0.066722885
1	0xbd497218	-0.049181074
2	0x3dcb7d6a	0.0993603
3	0xbda2a86f	-0.079422824
4	0x3a676828	0.0008827471
5	0xbceb15bc	-0.028696887
6	0x3d02687a	0.031837918
7	0xbda57236	-0.08078425
8	0x3d42e812	0.0475846
9	0xbda791aa	-0.0818208
10	0xbb4df9d1	-0.003142942
11	0xb934001e	-0.00017166181
12	0xbd162727	-0.036658432
13	0x3db3cde0	0.08779502
14	0x3d44e5de	0.04807078
15	0xba246f43	-0.0006272683
16	0x3b8368cd	0.004010296
17	0xbd8d0e76	-0.06887524
18	0xbe87d96e	-0.26533073
19	0xbe15a4fd	-0.1461372
20	0xbeadfb3e	-0.33980745
21	0x3e8272d1	0.25478223
22	0xbec9d319	-0.39418867
23	0xbe553727	-0.2082182
24	0x3f369cb1	0.7133284
25	0x3eb26072	0.34839207
26	0xbe1dba43	-0.15403084
27	0xbe7cde00	-0.24694061
28	0xbdd831a8	-0.10556346
29	0xbe928ee9	-0.28624657
30	0x3e06bc81	0.13157846
31	0xbd5c349d	-0.053761113
32	0xbe2f0c4e	-0.17094538
33	0x3e0bc9fc	0.1365127
34	0x3d6ef9ce	0.0583437
35	0xba5ccb11	-0.0008422593
36	0xbda99c40	-0.082817554
37	0x3cf0236b	0.029313764
38	0xbc217282	-0.009853961
39	0x3dac439f	0.08411335
40	0x3da25f0f	0.07928287
41	0xbcfdb487	-0.030969871
42	0xbd5aa50f	-0.05338007
43	0x3df5612b	0.11981424
44	0xbd8a3ede	-0.06750272
45	0xbdcc0474	-0.09961787
46	0x3d0a01ca	0.033693112
47	0xbc2a6e4b	-0.010402272
48	0x3dd995ed	0.10624299
49	0x3d43c260	0.047792792
50	0xbbc72cdb	-0.0060783452
51	0x3d8ba406	0.06818394
52	0x3d77311f	0.06034958
53	0xbcb9d55d	-0.022684747
54	0x3d984dd3	0.07436719
55	0x3d2ade3b	0.04171584
56	0x3de42703	0.111402534
57	0xbe0c2b9c	-0.1368851
58	0xbdff9ef8	-0.12481493
59	0x3d60fd5a	0.054929115
60	0xbe0f8a94	-0.14017707
61	0xbbeebaf8	-0.007285472
62	0x3dbc2986	0.091876075
63	0x3c79aae2	0.015238496
64	0xbd88a10e	-0.06671344
65	0xbdb68c6e	-0.089135036
66	0x3d65adb0	0.056073844
67	0x3d4ae714	0.04953678
68	0x3ba294e1	0.0049615954
69	0x3c95ceb4	0.01828704
70	0x3cbff007	0.023429884
71	0xbcc6dabf	-0.024274228
72	0xbdb14788	-0.08656222
73	0x3cbe267b	0.023211708
74	0xbd9b3446	-0.0757833
75	0x3d626bc0	0.05527854
76	0x3bbb96e1	0.0057247733
77	0xbd302bc0	-0.043010473
78	0x3d840c52	0.064476624
79	0x3dd7edbe	0.105433926
80	0xbcd3a64a	-0.025836129
81	0xbda33d2c	-0.07970652
82	0xbd803c1c	-0.06261465
83	0xbd2e1bb6	-0.042506896
84	0x3cecf847	0.028926982
85	0xbc12711d	-0.008938101
86	0xbda21c3b	-0.07915541
87	0x3d56ea43	0.052469503
88	0x3dc5a806	0.096511886
89	0xbdb6a6f9	-0.08918566
90	0x3dda5a54	0.1066176
91	0x3dc210a6	0.09475832
92	0x3dd909fa	0.10597606
93	0xbd32ab8a	-0.043620624
94	0x3dc528a9	0.09626896
95	0xbd3e4693	-0.046454024
96	0xbda3c826	-0.0799716
97	0xbe05faf3	-0.13084011
98	0xbdd9edd1	-0.10641063
99	0xbd8978c5	-0.06712488
100	0x3d5b62fa	0.05356119
101	0x3df79882	0.120896354
102	0xbc6264b7	-0.013817958
103	0x3d5d26fd	0.05399226
104	0x3d0e89c5	0.034799356
105	0x3dc95943	0.098314784
106	0x3de77dd0	0.11303294
107	0x3dc74770	0.097304225
108	0xbe03fda2	-0.12889722
109	0x3d613716	0.054984175
110	0xbe0f621b	-0.14002268
111	0x3e0073cf	0.12544177
112	0x3d972bbd	0.07381389
113	0xbcab2373	-0.020890927
114	0x3e7fc204	0.24976355
115	0x3ea05553	0.31315097
116	0x3d4154d9	0.047200058
117	0x3d0e7587	0.03478005
118	0xbca1e424	-0.019762106
119	0x3db8bbd4	0.090202
120	0xbbddccdf	-0.0067688073
121	0xbda79f2b	-0.08184656
122	0x3daff667	0.085919194
123	0xbd5de985	-0.05417778
124	0xbc4b477b	-0.012407179
125	0x3dc8ae39	0.09798855
126	0xbd4e473a	-0.050360896
127	0x3bf8f9f1	0.0075981547
128	0x3c1571b9	0.009121352
129	0x3dbcff08	0.09228331
130	0xbdc3a020	-0.09552026
131	0xbdaf0a38	-0.08546871
132	0x3e1c4d81	0.1526394
133	0x3d98404e	0.0743414
134	0x3d046adf	0.032328483
135	0x3db5ef14	0.08883491
136	0x3c7dd5e4	0.01549289
137	0x3d70e8de	0.05881583
138	0xbdea0032	-0.114258185
139	0xbdae1ab8	-0.0850119
140	0x3c2acd10	0.010424867
141	0x3d01fe84	0.031736866
142	0xbdcb9bc0	-0.09941816
143	0x3d1af306	0.03782942
144	0x3d89e99a	0.06734009
145	0xbad19659	-0.0015990242
146	0x3cd82ab0	0.026387542
147	0x3c8e28e6	0.017353486
148	0x3cd4626a	0.025925834
149	0x3d08e92f	0.033425506
150	0xbbb552b3	-0.00553354
151	0xbc0f7d9b	-0.008757974
152	0x3cafc79f	0.021457491
153	0xbccae1b3	-0.024765825
154	0xbb6c8805	-0.0036091816
155	0xbd37b67d	-0.04485177
156	0x3d5f3678	0.054495305
157	0xbc6e915c	-0.014561024
158	0xbbb99c77	-0.005664404
159	0x3b413fa0	0.0029487386
160	0xbd0e8c38	-0.03480169
161	0x3d32f192	0.04368741
162	0x3ded38c2	0.11583091
163	0x3e3c75fc	0.18404382
164	0x3d587b2b	0.052851837
165	0xbe0da43b	-0.1383218
166	0xbe34823f	-0.1762781
167	0xbdc62d22	-0.09676577
168	0x3d412aee	0.04716008
169	0x3e14e425	0.14540155
170	0x3da701f0	0.081546664
171	0xbe6db729	-0.23214401
172	0xbe935692	-0.28776985
173	0x3dbb2236	0.091373846
174	0x3e04a70d	0.1295435
175	0x3ebe417d	0.3715934
176	0x3e2b0224	0.16700035
177	0xbd83de75	-0.06438915
178	0xbdacd993	-0.084399365
179	0x3e01ba9c	0.12668842
180	0xbdd09a7f	-0.10185718
181	0x3bbe5084	0.005807938
182	0xbb380d6c	-0.0028084172
183	0x3d17092a	0.036873974
184	0xbd2a6b39	-0.04160616
185	0x3beda316	0.0072521074
186	0x3a705ddd	0.000916926
187	0x3d5bd29c	0.05366765
188	0xbbffede4	-0.007810341
189	0xbd1e5690	-0.03865677
190	0xbe6cf47e	-0.23140141
191	0xbd59f0dd	-0.05320822
192	0xbc35fcc1	-0.0111076245
193	0x3d6d92f0	0.05800146
194	0x3e23205c	0.15930313
195	0x3c97bf29	0.01852377
196	0xbc1c8830	-0.009553954
197	0xbd2c532e	-0.042071514
198	0x3cee8ee3	0.029120868
199	0x3cf2e594	0.029650487
200	0x3d645468	0.05574456
201	0x3e23d16b	0.15997855
202	0x3cd5a416	0.026079219
203	0x3b733906	0.0037112846
204	0xbe1a9eb6	-0.15099606
205	0xbdf17b39	-0.11791081
206	0xbcc626a6	-0.02418835
207	0xbd766cde	-0.060162418
208	0xbd794d54	-0.06086476
209	0xbd3d261f	-0.046178933
210	0xbca88936	-0.02057324
211	0xbccefbb2	-0.025266502
212	0xbc8c75a9	-0.017145948
213	0x3bba8dac	0.005693158
214	0x3d444529	0.04791752
215	0xbd21a5b8	-0.039464682
216	0x3ce3233f	0.027726768
217	0xbd48f70d	-0.04906373
218	0xbc131bef	-0.008978828
219	0x3d7a0750	0.06104213
220	0xbc0d93fe	-0.008641241
221	0x3d3cf3c5	0.046130914
222	0x3c4445c2	0.011979522
223	0x3ce56461	0.028001966
224	0xbca68cdf	-0.020330844
225	0x3cad7f6b	0.021178922
226	0x3dc3ffc8	0.09570271
227	0x3caec81c	0.021335654
228	0xbd263b05	-0.04058363
229	0xbdb42fca	-0.087981775
230	0xbd89aa00	-0.06721878
231	0x3d62f866	0.055412672
232	0x3dafd6c4	0.08585885
233	0x3ddf9324	0.10916737
234	0xbda6e934	-0.08149949
235	0x3cbd5bc4	0.023115046
236	0xbca1fda0	-0.019774258
237	0xbb8f8df1	-0.0043809344
238	0x3cbe4ec5	0.02323092
239	0x3d1e5960	0.038659453
240	0x3d8b9dd1	0.068172105
241	0x3b349d1a	0.002755946
242	0xbd45f3b3	-0.048328113
243	0x3ced9b7e	0.029004809
244	0x3d87f9a6	0.066394135
245	0x3c71fac5	0.014769261
246	0xbe0301a8	-0.127936
247	0xbe30c253	-0.17261629
248	0xbdd6c7bb	-0.10487314
249	0x3d93e9f9	0.07222361
250	0x3e1c720d	0.15277882
251	0x3d16c422	0.03680814
252	0x3bc6aa5d	0.0060627894
253	0x3de99af4	0.11406508
254	0xbe0a0f7f	-0.13482474
255	0x3ca2408b	0.019806167

cv2.bias f4 [32]
0	0xbd813f36	-0.06310885
1	0xbdcc0120	-0.09961152
2	0xbd18017c	-0.03711079
3	0xbc0d176d	-0.008611542
4	0x3e5d4793	0.21609335
5	0x3baf56e5	0.005350935
6	0x3c738892	0.014864104
7	0x3d8c8a7e	0.06862353
8	0xbd10f606	-0.035390876
9	0x3e01e703	0.1268578
10	0x3d59634d	0.053073216
11	0x3cce2889	0.025165813
12	0xbca69ee5	-0.020339439
13	0x3e4206f4	0.18947965
14	0x3cd73177	0.026268704
15	0xbdde8026	-0.10864286
16	0xbd1c0de4	-0.038099185
17	0x3dc5cf64	0.09658697
18	0xbd5b9f40	-0.05361867
19	0xbd10246b	-0.03519098
20	0x3c2ae2f7	0.010430089
21	0x3e2c35b9	0.16817369
22	0x3c851392	0.016244683
23	0xbbef666e	-0.0073059117
24	0x3dcfde1a	0.101497844
25	0xbdad02e9	-0.08447821
26	0xbd4f2e75	-0.050581414
27	0xbcc66bb1	-0.024221273
28	0x3c87fe49	0.016600745
29	0x3da8bd4a	0.08239229
30	0xbd3e42cc	-0.04645042
31	0xbd850aae	-0.064961776

cv3.weight f4 [32, 32, 2, 2]
0	0xbd31b0a4	-0.04338135
1	0xbd9de5cc	-0.07709846
2	0x3cf2d0bf	0.029640554
3	0xbcbd62d6	-0.023118418
4	0x3e8962e4	0.2683326
5	0x3e691c1a	0.22764626
6	0xbe4f9c7d	-0.2027454
7	0xbe28eec9	-0.1649734
8	0x3d75e491	0.06003243
9	0x3d9c9e63	0.07647397
10	0xbe66bf47	-0.22533904
11	0xbe8d9bee	-0.27658027
12	0xbe633745	-0.22189052
13	0xbe947a0b	-0.2899936
14	0xbd7acdc1	-0.06123138
15	0xbd95e24b	-0.073185526
16	0x3d325c56	0.04354509
17	0x3d904761	0.070448644
18	0x3d0d1cef	0.03445142
19	0x3dd10ba6	0.102073
20	0xbe0f1330	-0.13972163
21	0xbd5baef0	-0.05363363
22	0xbe5b3b41	-0.21409322
23	0xbe8820fc	-0.26587665
24	0xbd3ad6c8	-0.045614988
25	0x3d9dff31	0.077146895
26	0x3da8af86	0.082366034
27	0x3d761b9d	0.060084928
28	0x3ca7dc6f	0.020490853
29	0x3ce3a92e	0.027790632
30	0x3a832783	0.0010006282
31	0xbe04942b	-0.12947147
32	0x3d8c1f15	0.06841866
33	0x3b41bb00	0.0029560924
34	0x3d2ae983	0.0417266
35	0x3d448c75	0.047985513
36	0x3dd2118b	0.10257252
37	0x3db7108a	0.089387015
38	0xbd7fa8be	-0.062416784
39	0xbd506155	-0.050874073
40	0xbdaec80f	-0.08534252
41	0xbd84bca1	-0.064812906
42	0xbdba2aff	-0.09090232
43	0x3c98575e	0.018596347
44	0x3c65c873	0.014024842
45	0x3d3359a0	0.043786645
46	0xbd245d5c	-0.040128097
47	0xbd84e9b8	-0.06489891
48	0xbe005989	-0.12534155
49	0xbdf5756a	-0.119852856
50	0x3c83c800	0.016086578
51	0x3d98aec1	0.07455207
52	0x3e052ece	0.13006136
53	0x3e26fbad	0.16306944
54	0x3e34dff3	0.17663555
55	0x3e265637	0.16243826
56	0xbe2998e6	-0.16562232
57	0xbe7c6888	-0.2464925
58	0x3e16507e	0.14679143
59	0x3e441659	0.1914915
60	0xbd83c2d6	-0.064336464
61	0xbd22419d	-0.039613355
62	0x3d55540c	0.052082106
63	0x3d3d2810	0.046180785
64	0xbe30f7fb	-0.17282097
65	0xbd392a83	-0.045206558
66	0x3e8a24ab	0.269811
67	0x3dfb34cb	0.12265929
68	0xbd239227	-0.039934304
69	0xbdbb1189	-0.09134204
70	0xbe9121f9	-0.28346232
71	0xbe499408	-0.19685376
72	0xbd080b05	-0.033213634
73	0xbd922fc1	-0.071380146
74	0xbcb7f080	-0.022453547
75	0xbde7623a	-0.11298032
76	0x3e220790	0.15823197
77	0x3dddae44	0.10824254
78	0xbd81306b	-0.06308063
79	0xbd4be793	-0.049781393
80	0xbc9ba84f	-0.019001154
81	0xbbb8eb25	-0.005643266
82	0xbe97444f	-0.29544303
83	0xbe0953a3	-0.13410811
84	0x3deefda1	0.116694696
85	0x3dd3ef0f	0.10348331
86	0x3adffaa1	0.0017088243
87	0x3d406580	0.046971798
88	0xbe2a7c0a	-0.1664888
89	0xbeac81a3	-0.33692655
90	0xbd0c0849	-0.03418759
91	0xbe7642a4	-0.24048859
92	0xbc057e2c	-0.0081477575
93	0xbd361ac8	-0.044459134
94	0xbcfb9471	-0.03071043
95	0xbc60da9b	-0.013723995
96	0xbba3fb09	-0.005004291
97	0x3cebc876	0.02878211
98	0x3cda5d52	0.026655827
99	0xbdf7648b	-0.12079724
100	0xbcbed18d	-0.023293281
101	0x3e14d680	0.1453495
102	0xbe881c24	-0.2658397
103	0xbe6a1ab3	-0.22861747
104	0x3bb164d9	0.0054136333
105	0xbc7dd9f6	-0.0154938605
106	0x3d81f12e	0.063448295
107	0xbca467e5	-0.020069072
108	0x3d1a31f0	0.03764528
109	0x3d3e77fe	0.046501152
110	0x3ec3e3e4	0.38259804
111	0x3ed38277	0.41310474
112	0x3c5699b5	0.01309817
113	0xbd36f864	-0.044670478
114	0xbe476c50	-0.19474912
115	0xbddf1114	-0.10891929
116	0x3e1ed9e2	0.15512803
117	0x3e08afe2	0.13348344
118	0x3d09af22	0.033614285
119	0x3d6b0628	0.057378918
120	0x3ac9801c	0.0015373263
121	0xbc3c6b1d	-0.011500147
122	0x3dfbf9f5	0.12303535
123	0x3d8e7715	0.06956307
124	0x3dbf6e57	0.093472175
125	0x3d7b9bb4	0.061427787
126	0x3dcf9a42	0.10136844
127	0x3c2d7bc4	0.01058859
128	0x3de5f35e	0.11228059
129	0x3c560b25	0.0130641805
130	0x3c855378	0.016275153
131	0x3c81fa90	0.015866548
132	0xbee60940	-0.44928932
133	0xbf03de33	-0.51510924
134	0xbc469647	-0.01212079
135	0xbd665965	-0.056237597
136	0xbd619cce	-0.05508118
137	0xbf70d832	-0.9407989
138	0xbe82fe00	-0.25584412
139	0xbeb9b487	-0.36270544
140	0xbdac13d1	-0.08402217
141	0xbe3014bd	-0.17195411
142	0xbed8839f	-0.4228792
143	0xbd88b8ea	-0.066758946
144	0x3d8b1561	0.06791187
145	0x3c082bf4	0.0083112605
146	0xbd6a6ab2	-0.05723066
147	0xbda0f6ad	-0.0785955
148	0xbe4e3260	-0.20136404
149	0x3e025dc4	0.12731081
150	0xbea4cee0	-0.32189083
151	0xbea687c0	-0.32525444
152	0xbe40db06	-0.18833551
153	0xbe6b5603	-0.2298203
154	0x3e938eb4	0.2881981
155	0x3e175040	0.14776707
156	0xbd5624f2	-0.052281328
157	0xbd89e0f2	-0.06732358
158	0x3dfa28e0	0.122148275
159	0x3da70739	0.081556745
160	0x3e20846d	0.15675516
161	0x3d6adbfd	0.057338703
162	0xbcaafd87	-0.020872844
163	0xbd8c673d	-0.06855629
164	0x3d3f13ee	0.046649866
165	0xbe36a701	-0.17837144
166	0x3aa7caa3	0.0012801479
167	0xbe31fa97	-0.17380749
168	0xbee394c0	-0.44449425
169	0xbe94878a	-0.29009658
170	0xbf8b4de5	-1.0883147
171	0xbf6d7049	-0.9274946
172	0xbe1a7024	-0.15081841
173	0xbe08a9ba	-0.13345996
174	0xbdd6e1c2	-0.10492279
175	0xbdd262fd	-0.10272787
176	0x3e3397c6	0.17538366
177	0x3d95a7c0	0.073073864
178	0x3e0ac66b	0.13552253
179	0x3df317b3	0.11869755
180	0x3c61a4bf	0.013772189
181	0x3bb44bd0	0.0055022016
182	0x3c97acce	0.018515017
183	0xbca1e7d6	-0.019763868
184	0xbe63100f	-0.22174095
185	0xbf7b9564	-0.98274827
186	0x3cbf4173	0.023346638
187	0xbf03d5ba	-0.51497996
188	0x3cef340e	0.029199626
189	0x3def73b7	0.11691993
190	0x3dda5315	0.10660378
191	0x3d90e5c1	0.07075072
192	0x3d7064b5	0.05868979
193	0x3d9482ca	0.072515085
194	0xbf025550	-0.50911427
195	0xbe694664	-0.22780758
196	0xba8a5694	-0.0010554367
197	0xbe26595f	-0.1624503
198	0xbe1f3343	-0.15546899
199	0xbe95462f	-0.29155108
200	0x3eb5e81e	0.35528654
201	0x3ebcaa13	0.36848506
202	0x3e924ad1	0.28572705
203	0x3ea64a64	0.3247863
204	0x3dc7d1e5	0.09756831
205	0x3db5876e	0.08863722
206	0xbcebfa52	-0.028805885
207	0x3d53856a	0.051640905
208	0x3e4ac8a2	0.19803098
209	0x3df6fe27	0.120601945
210	0x3e8dab9e	0.27669996
211	0x3e525616	0.20540652
212	0x3b9b0624	0.0047309566
213	0x39c55cfb	0.00037644044
214	0xbd75f24a	-0.060045518
215	0xbdda972c	-0.10673365
216	0x3f18c223	0.5967123
217	0x3f2abcd9	0.6669441
218	0x3dba820a	0.09106834
219	0xbcdf4a29	-0.027257042
220	0xbc88aa56	-0.016682785
221	0x3a947e6f	0.0011329184
222	0xbd90f47d	-0.070778824
223	0xbdc2ae0e	-0.095058545
224	0xbd09eeb5	-0.033674914
225	0x3d36c243	0.044618856
226	0x3d1d067c	0.038336262
227	0xba9c7f58	-0.0011939807
228	0x3d569fc7	0.05239847
229	0xbf2ef8dc	-0.6834848
230	0xbe59df39	-0.21276559
231	0xbec84c10	-0.3912053
232	0xbeca9981	-0.3957024
233	0xbdb1ade4	-0.08675745
234	0xbc481e49	-0.012214252
235	0x3dcaa6b4	0.09895077
236	0xbf0ea9bd	-0.5572775
237	0x3e85f21f	0.26161286
238	0xbdda5fdd	-0.10662816
239	0xbe8f8896	-0.28033894
240	0x3caa0c9f	0.020757971
241	0xbc9f100d	-0.019416833
242	0xbc8a8880	-0.016910791
243	0xbd8b60be	-0.068055615
244	0xbc91e3d6	-0.017808836
245	0x3d9bf391	0.07614816
246	0x3dd81a7c	0.105519265
247	0x3ba41ede	0.0050085625
248	0xbe34b3bd	-0.1764669
249	0xbdc54568	-0.09632379
250	0xbe23f689	-0.16012014
251	0xbe9cfd92	-0.3066221
252	0x3e113309	0.14179625
253	0x3d36e5cf	0.044652756
254	0x3d81e4b0	0.06342447
255	0x3d50b1e6	0.050950907

cv3.bias f4 [32]
0	0x3e2b91a8	0.16754782
1	0xbe4f0efa	-0.20220557
2	0x3bdb6403	0.006695272
3	0x3d034eb3	0.032057475
4	0x3c39a6ce	0.011331273
5	0xbd9b5acc	-0.075856775
6	0x3d791e64	0.06082
7	0xbad898dc	-0.0016525048
8	0xbdee979b	-0.1165001
9	0x3aff71d5	0.0019488881
10	0x3db06250	0.086125016
11	0x3d9830f8	0.07431215
12	0x3e26eb42	0.16300681
13	0xbe09e09b	-0.13464586
14	0x3dec7b86	0.11546998
15	0xbd21e02d	-0.03952043
16	0xbd11e323	-0.035617005
17	0x3dffac6a	0.12484057
18	0xbce2871c	-0.027652316
19	0x3c8e94b6	0.017404895
20	0x3db3b894	0.0877544
21	0x3cc1021d	0.023560578
22	0xbd195df9	-0.037443135
23	0x3d00173d	0.03127216
24	0xbc436f8d	-0.011928451
25	0x3dca15b9	0.098674245
26	0xbc12fbd3	-0.008971172
27	0x3e344709	0.17605223
28	0x3e016b71	0.12638642
29	0x3c1534a1	0.009106786
30	0x3d26beb5	0.040709216
31	0x3da5b365	0.080908574

cv4.weight f4 [64, 32, 3, 3]
0	0xbd165136	-0.036698543
1	0xbcde315a	-0.027123142
2	0x3e1d6296	0.15369639
3	0x3daeb54e	0.08530675
4	0x3db64295	0.08899418
5	0xbd2a770b	-0.041617434
6	0x3d9755b6	0.07389395
7	0xbb93e4e2	-0.004513369
8	0xbe2091fe	-0.15680692
9	0xbea84eab	-0.3287252
10	0x3db58958	0.08864087
11	0x3dae4698	0.085095584
12	0x3c8b3d67	0.016997052
13	0x3eadf19f	0.33973405
14	0x3e882db0	0.26597357
15	0xbe3cf4ac	-0.1845271
16	0x3d26a052	0.040680237
17	0xbe07e09a	-0.13269272
18	0xbb84e5d7	-0.0040557194
19	0x3e11d0d3	0.14239816
20	0x3da61a95	0.08110539
21	0x3e069b98	0.13145292
22	0xbe13fc55	-0.14451726
23	0xbda491c2	-0.080356136
24	0xbb376f33	-0.0027989864
25	0xbe00001d	-0.12500043
26	0xbe3d36e1	-0.18477966
27	0x3dfdbc74	0.1238946
28	0xbdadae4d	-0.08480511
29	0x3daa8b8b	0.08327397
30	0xbdd56a04	-0.104206115
31	0xbe4d4638	-0.20046318
32	0x3d5cc84e	0.053901963
33	0x3af22098	0.0018472848
34	0xbe610cc7	-0.2197753
35	0xbd4f7a57	-0.05065378
36	0xbd88975f	-0.06669497
37	0x3da03a14	0.078235775
38	0xbd6f43bc	-0.058414206
39	0xbe627a1f	-0.22116898
40	0x3e3a830f	0.18214057
41	0x3d59a002	0.05313111
42	0xbd9ed4c4	-0.077554256
43	0x3e5ce901	0.21573259
44	0x3d944f0f	0.07241642
45	0xbe175764	-0.1477943
46	0xbd174c28	-0.036937863
47	0xbe214d35	-0.15752108
48	0x3da06c5c	0.07833168
49	0xbe6e1354	-0.2324956
50	0x3e432b50	0.19059491
51	0xbe3a3ffe	-0.18188474
52	0x3e1f609b	0.15564196
53	0xbe5adfda	-0.21374455
54	0xbea007c6	-0.3125593
55	0xbe9a2069	-0.30102852
56	0xbe6a88c1	-0.2290373
57	0xbe055423	-0.13020377
58	0x3e0b954f	0.13631175
59	0xbdcfa146	-0.10138182
60	0xbd50c442	-0.050968416
61	0xbd0dab07	-0.034586933
62	0xbd040b62	-0.032237418
63	0x3e45f2fb	0.19330971
64	0x3ce8b94a	0.028408665
65	0xbdc26701	-0.09492303
66	0x3dcabbea	0.09899123
67	0x3d3ce32c	0.046115085
68	0xbd0242e5	-0.031802077
69	0x3cc160a0	0.023605645
70	0x3dc8ef24	0.098112375
71	0xbe2fc4ae	-0.17164871
72	0xbe825825	-0.25457874
73	0xbb8a7fdd	-0.0042266683
74	0xbbacf455	-0.00527815
75	0xbdcbf92c	-0.09959635
76	0x3e3ba0f1	0.18323113
77	0x3ce68b0a	0.02814247
78	0x3bca065c	0.006165309
79	0x3dbb9ca8	0.09160739
80	0x3d8e4bcb	0.0694805
81	0x3e4c31f0	0.19940925
82	0x3d71df8f	0.059051093
83	0x3dcd4b33	0.10024109
84	0x3def9e28	0.11700088
85	0x3daf5e89	0.08562953
86	0x3e01da1d	0.1268086
87	0x3dbb22b3	0.09137478
88	0x3b0fbd8e	0.0021933052
89	0x3deec8e4	0.116594106
90	0xbe0727e5	-0.13198812
91	0xbd335ba5	-0.04378857
92	0x3d95505a	0.072907165
93	0xbe2e40aa	-0.17016855
94	0x3c9d9423	0.019235676
95	0xbbf300b8	-0.007415857
96	0xbcaa9f2e	-0.020827856
97	0xbddf7676	-0.109112665
98	0x3ca1831e	0.019715842
99	0xbe42da47	-0.19028579
100	0x3dc9a7c8	0.09846455
101	0x3c9a8603	0.01886273
102	0xbbf172e9	-0.0073684347
103	0x3cd0327d	0.0254147
104	0xbdcd99de	-0.100391135
105	0xbc8d5fcf	-0.0172576
106	0xbd865ec6	-0.06561045
107	0xbd0a649e	-0.033787362
108	0xbd3652c5	-0.04451253
109	0x3de07d69	0.1096142
110	0x3e13a0c2	0.14416793
111	0x3d90a907	0.070634894
112	0x3e015018	0.1262821
113	0x3d771f1f	0.060332414
114	0x3e0f93b6	0.14021191
115	0xbc4fe94d	-0.012689901
116	0x3e43e4a7	0.19130193
117	0x3b074048	0.002063768
118	0xbdb2a099	-0.08722038
119	0x3d05772c	0.032584354
120	0x3df276d8	0.11839074
121	0xbe0f5d94	-0.14000541
122	0x3ca7886f	0.020450799
123	0xbe94002d	-0.28906384
124	0xbd5570b8	-0.05210945
125	0xbdeb01d1	-0.11474956
126	0xbd3bf3aa	-0.045886673
127	0x3cb62028	0.02223213
128	0xbd682069	-0.056671534
129	0x3d1974c0	0.037464857
130	0x3e4af834	0.19821244
131	0x3d80d7b5	0.06291143
132	0x3d884f0c	0.06655702
133	0x3d8cdb22	0.06877734
134	0xbdaa1ccb	-0.08306273
135	0x3c004e7b	0.007831211
136	0xbd06f998	-0.032952875
137	0xbe311128	-0.17291701
138	0xbcc1a55e	-0.023638424
139	0x3d7038a6	0.058647774
140	0x3c7eca92	0.015551226
141	0x3d99fd1a	0.075189784
142	0xbbee7eb2	-0.007278287
143	0xbdc8f85b	-0.09812995
144	0x3dad7950	0.08470404
145	0x3ce0998d	0.027416969
146	0xbdfc162c	-0.123089164
147	0xbc89e7ea	-0.016834218
148	0xbdb8c15c	-0.090212554
149	0x3dadfc6d	0.08495412
150	0x3e212fee	0.1574094
151	0xbd4c5455	-0.049885113
152	0x3da3f020	0.080047846
153	0xbcc527d1	-0.024066838
154	0xbd6ad409	-0.05733112
155	0xbd0b54f9	-0.034016583
156	0xbdd5370d	-0.10410891
157	0xbd580812	-0.05274207
158	0xb96c5740	-0.00022539217
159	0x3e49f78b	0.19723336
160	0x3c60f8ff	0.01373124
161	0xbdf48faf	-0.11941468
162	0x3dcbcc2a	0.099510506
163	0xbbb5aeb0	-0.005544506
164	0x3d840fba	0.06448312
165	0x3d7ab3c1	0.061206583
166	0x3ccd56aa	0.025065739
167	0xbdb151e9	-0.08658201
168	0xbca4b5f7	-0.020106299
169	0xbe003629	-0.1252066
170	0xbe07d98c	-0.13266581
171	0xbccb7567	-0.024836255
172	0xbe3868b2	-0.18008688
173	0xbdfa2d19	-0.12215633
174	0x3e34f852	0.17672852
175	0x3e0ee791	0.13955523
176	0x3d9096db	0.070600234
177	0xbdc04815	-0.093887486
178	0x3df24c4e	0.1183096
179	0x3c41a252	0.011818485
180	0x3e3c1c2b	0.1837012
181	0x3e0cb0a3	0.13739257
182	0xbe0fcb73	-0.14042453
183	0x3cc22e19	0.023703622
184	0xbc85da7d	-0.016339535
185	0x3eb3d306	0.35121936
186	0x3e031e22	0.12804464
187	0x3e1e5df7	0.15465532
188	0x3e815e1b	0.2526711
189	0x3d8da9ce	0.06917153
190	0x3c59d9f0	0.013296589
191	0x3cd49f4d	0.025954867
192	0x3e27e7f1	0.16397072
193	0x3d7955b9	0.060872767
194	0x3ddf8e5b	0.10915824
195	0xbd0f62a7	-0.03500619
196	0xbda816c9	-0.08207471
197	0xbd8b515d	-0.06802628
198	0xbe2a47ba	-0.16628924
199	0x3ce57984	0.028012045
200	0x3d370044	0.044677988
201	0xbda8eb51	-0.08248008
202	0xbd25429a	-0.04034672
203	0xbe192405	-0.14955147
204	0x3dcc993f	0.09990167
205	0x3d9750c1	0.073884495
206	0x3d410a4f	0.04712897
207	0x3e218dc9	0.15776743
208	0xbcbf6fbe	-0.023368713
209	0xbd2fb84c	-0.04290037
210	0x3d80e4b4	0.06293622
211	0x3d95ec75	0.07320491
212	0x3e02d21f	0.12775467
213	0x3c1a2b27	0.009409702
214	0x3de9fe46	0.11425452
215	0xbd7cce60	-0.061720252
216	0xbe219044	-0.15777689
217	0xbd94a485	-0.07257942
218	0xbe046be2	-0.12931779
219	0xbe482b12	-0.1954768
220	0xbd0bec97	-0.034161177
221	0xbd514ac5	-0.051096696
222	0xbe864c9e	-0.2623033
223	0xbe491586	-0.19637117
224	0x3ccef616	0.025263827
225	0xbe2decb7	-0.16984831
226	0x3da5046a	0.080574825
227	0x3dcabbe5	0.09899119
228	0xbe8b4739	-0.27202776
229	0x3e1b8c53	0.15190248
230	0xbd0dcf7d	-0.034621704
231	0x3cb1a1c3	0.02168358
232	0x3e0f3779	0.13986005
233	0x3e4c88cc	0.19974059
234	0x3db3864a	0.08765848
235	0x3c13158b	0.008977304
236	0xbdce0d25	-0.10061101
237	0x3bfafd57	0.007659595
238	0x3c0bc61b	0.008531119
239	0xbda8d1d7	-0.08243149
240	0x3d85efec	0.06539902
241	0xbdf62dc8	-0.12020451
242	0xbd4564a7	-0.048191693
243	0xbd5693b7	-0.052386966
244	0xbe9fc564	-0.31205285
245	0xbddd85ee	-0.10816561
246	0x3c6dea5d	0.014521209
247	0xbe1eac19	-0.15495338
248	0xbe3a7c63	-0.18211512
249	0x3d94b7e4	0.07261637
250	0xbd99d902	-0.07512094
251	0xbd9fc12f	-0.07800519
252	0xbcf7684f	-0.030201105
253	0x3d54bd91	0.051938597
254	0x3d63609e	0.055512063
255	0x3d2014ed	0.039082456

cv4.bias f4 [64]
0	0x3dc9dd7b	0.09856697
1	0x3cf0d059	0.029396223
2	0x3e27081b	0.16311686
3	0x3cca072e	0.024661627
4	0x3e77c8e4	0.24197727
5	0x3dddb7c3	0.108260654
6	0x3db16aa0	0.08662915
7	0x3df20b80	0.118186
8	0x3b9f88e4	0.0048686136
9	0x3d2daa84	0.042398944
10	0xbd5c745d	-0.05382191
11	0x3d85906d	0.06521688
12	0x3d9c8126	0.076418206
13	0x3e06a4ee	0.13148853
14	0x3e212dd7	0.15740143
15	0x3d1a84ee	0.037724428
16	0xbd6d95b6	-0.058004104
17	0x3cb08e81	0.021552326
18	0x3e1a9407	0.1509553
19	0x3b5bbf07	0.003353061
20	0x3e2c5a6e	0.16831371
21	0x3d5a6c14	0.053325728
22	0xbd2ba456	-0.04190477
23	0x3c40e478	0.011773221
24	0xbdb2ff81	-0.0874014
25	0xbd900bd2	-0.070335045
26	0xbc3ded2b	-0.01159219
27	0x3bdd0b0b	0.006745701
28	0x3dcc4058	0.0997321
29	0x3d7885e8	0.060674578
30	0x3e684c68	0.22685397
31	0xbdecfb0a	-0.115713194
32	0xbd9fffca	-0.0781246
33	0xbc80624e	-0.015671875
34	0x3dc17397	0.09445875
35	0xbd33a347	-0.043856885
36	0xbd83ff56	-0.06445186
37	0xbd5d2dab	-0.05399863
38	0x3df2bcb6	0.118524
39	0xbd0de00e	-0.034637503
40	0x3e1c8958	0.15286767
41	0x3c874d3a	0.016516317
42	0x3cfeb23f	0.031090854
43	0xbe17cddd	-0.14824624
44	0xbd271e09	-0.040800128
45	0x3ccbbf72	0.024871562
46	0x3ccc21f2	0.02491853
47	0x3dd20f28	0.10256797
48	0xbddd007c	-0.10791108
49	0x3db71721	0.08939958
50	0x3e0887b7	0.13333021
51	0x3d2bc7cb	0.041938584
52	0xbb5bdd70	-0.0033548735
53	0x3daefebf	0.08544683
54	0x3cd97006	0.026542675
55	0x3db3caa9	0.08778889
56	0x3d17c3fe	0.037052147
57	0x3d789d2e	0.060696773
58	0x3ca40d38	0.020025834
59	0xbc779ae9	-0.015112617
60	0x3d641473	0.055683564
61	0x3af664e5	0.001879838
62	0x3e031ccb	0.12803952
63	0xbc8246b8	-0.015902862

cv5.weight f4 [64, 64, 2, 2]
0	0xbd957719	-0.07298107
1	0x3d42a0b4	0.04751654
2	0xbd33eccd	-0.043927003
3	0x3cae17a1	0.021251502
4	0xbc368c65	-0.011141871
5	0x3e182bd3	0.14860468
6	0x3e7db8f4	0.24777585
7	0x3ec9ba78	0.39400077
8	0xbcedeac7	-0.029042615
9	0x3dbfccd2	0.09365238
10	0xbc8294d6	-0.015940111
11	0x3dd44cab	0.10366186
12	0x3d890686	0.06690697
13	0x3c3ce063	0.011528107
14	0x3d2d4b5c	0.042308196
15	0xbca30aaa	-0.019902546
16	0x3e075a83	0.13218121
17	0x3d8bdb46	0.068289325
18	0xbd0cda51	-0.03438789
19	0xbe2f4f38	-0.17120063
20	0x3dd7e4a1	0.105416544
21	0x3dee8fc2	0.116485134
22	0xbe27aaad	-0.16373701
23	0xbe234a08	-0.1594621
24	0x3ce74cd7	0.028234882
25	0xbd57ce88	-0.052687198
26	0x3c99cef9	0.01877545
27	0xbc8c80c2	-0.01715124
28	0x3d545c5b	0.05184589
29	0xbd439ab8	-0.047754973
30	0x3d7420fb	0.059601765
31	0x3d3f0873	0.046638917
32	0x3e0321e6	0.128059
33	0xbda7ba51	-0.08189834
34	0x3e2af2c6	0.16694173
35	0x3df507f8	0.119644105
36	0x3c9a22fb	0.018815508
37	0xbc10fc50	-0.0088492185
38	0x3da18761	0.078871496
39	0x3c030f46	0.007999247
40	0xbe4ded5f	-0.20110081
41	0xbed7ae80	-0.4212532
42	0x3e89d09b	0.26916966
43	0x3e9c914b	0.305796
44	0x3c274f25	0.010211741
45	0xbd013a3d	-0.03154968
46	0xbde2a1a6	-0.11065988
47	0x3c6f1a1c	0.014593627
48	0x3e02da08	0.12778485
49	0xba0b5011	-0.000531436
50	0xbe1ea30e	-0.15491888
51	0xbe5f267f	-0.21792029
52	0xbd785958	-0.06063208
53	0xbcc8215f	-0.024429975
54	0x3a96b791	0.0011498799
55	0xbd113281	-0.035448555
56	0xbd17c261	-0.03705061
57	0x3cfd9c72	0.030958388
58	0x3d7e8a20	0.062143445
59	0x3d0331fe	0.0320301
60	0xbd44ea0f	-0.04807478
61	0xbdca62b7	-0.098821096
62	0xbde3b86f	-0.11119162
63	0xbce8a26d	-0.028397763
64	0xbdb051e9	-0.08609373
65	0xbd329916	-0.043603025
66	0x3c970791	0.018436225
67	0x3dbe9ce3	0.093072675
68	0x3e2064a0	0.15663385
69	0xbe98e72b	-0.29863867
70	0x3dcb36db	0.09922572
71	0xbe8c9473	-0.27457008
72	0xbe312dd0	-0.17302632
73	0xbd66f606	-0.05638697
74	0xbc3c4acf	-0.011492445
75	0x3df6cd78	0.12050909
76	0x3d93b2c5	0.07211832
77	0x3e61d66e	0.22054455
78	0xbd99492e	-0.07484661
79	0x3c50d053	0.012744981
80	0xbe1483a5	-0.14503343
81	0x3e0ba975	0.13638861
82	0xbc823b26	-0.015897345
83	0x3dd65306	0.10465054
84	0xbc369297	-0.011143348
85	0xbbf7691b	-0.0075503713
86	0x3c8d62c5	0.017259011
87	0x3c8c9cb9	0.017164575
88	0xbcf8b24f	-0.030358462
89	0xbe1b6e13	-0.15178709
90	0x3b67c2ae	0.003536384
91	0x3c653844	0.013990466
92	0xbe4c7d8f	-0.19969772
93	0xbda59b88	-0.08086306
94	0xbe199749	-0.14999117
95	0x3dbac528	0.09119636
96	0xbe5b3ec6	-0.21410665
97	0xbe1e1d28	-0.1544081
98	0xbdac58a9	-0.08415348
99	0x3c9da740	0.01924479
100	0xbe14c7bb	-0.14529316
101	0xbe28882a	-0.16458192
102	0x3c76bcc8	0.015059657
103	0xbd0be748	-0.034156114
104	0x3e6ddaf2	0.23228052
105	0xbe60c3f7	-0.21949755
106	0x3cc74460	0.024324596
107	0xbd9a693c	-0.07539603
108	0xbf2650e1	-0.6496716
109	0x3deeab89	0.116538115
110	0xbeb8b168	-0.3607285
111	0xbe16fe5b	-0.14745466
112	0x3d87b22b	0.0662578
113	0x3c8ae1ed	0.016953433
114	0x3c673fff	0.014114379
115	0x3cf6e046	0.030136239
116	0xbdf07bc8	-0.117423594
117	0x3d9f9221	0.07791544
118	0xbe575ef2	-0.21032313
119	0xbde68dcf	-0.112575166
120	0xbc906b32	-0.01762924
121	0x3d525ad8	0.051356167
122	0xbd5e1edf	-0.05422866
123	0xbe02eaab	-0.12784831
124	0xbe0b1c3b	-0.13584988
125	0xbe1bfa23	-0.15232138
126	0xbe44ba76	-0.19211754
127	0xbdd38b00	-0.103292465
128	0x3e093031	0.1339729
129	0x3e3569de	0.17716166
130	0x3de2ebcf	0.11080133
131	0x3db9cd06	0.09072308
132	0xbe34ff29	-0.17675461
133	0xbecb36dd	-0.39690295
134	0xbe53430d	-0.20631047
135	0xbe960ff5	-0.2930905
136	0xbcc75d32	-0.024336431
137	0xbcf08845	-0.029361853
138	0xbda0481d	-0.078262545
139	0xbd490e97	-0.04908618
140	0xbed7def4	-0.42162287
141	0xbf0f1037	-0.55884117
142	0xbe88b207	-0.26698324
143	0xbe3be4c8	-0.18348992
144	0xbd479ac1	-0.04873157
145	0xbde59ec8	-0.11211926
146	0xbdb971eb	-0.09054931
147	0xbd1eec63	-0.038799655
148	0xbdf26632	-0.118358985
149	0xbe9ec87c	-0.31012332
150	0x3c6692f3	0.014073121
151	0xbdc36ba8	-0.09542018
152	0x3c8d87cb	0.017276665
153	0x3d37096d	0.044686724
154	0xbd45cb8b	-0.048289817
155	0x3c729f68	0.014808513
156	0x3d411f42	0.04714895
157	0x3da40627	0.08008986
158	0x3d5fdd86	0.05465462
159	0x3d85375c	0.065046996
160	0x3cccb63c	0.02498924
161	0xb90e18ee	-0.00013551462
162	0x3d280285	0.041018028
163	0x3c1c97b6	0.009557655
164	0xbdf8282c	-0.12117037
165	0x39b8938d	0.0003520515
166	0xbd99c384	-0.07507995
167	0xbdb27c1d	-0.08715079
168	0xbdaf0d5f	-0.08547472
169	0x3de5c5fa	0.11219402
170	0xbe1264a4	-0.14296204
171	0x3e0b7b26	0.13621196
172	0x3d1a1618	0.037618726
173	0x3d5c03cf	0.05371457
174	0xbb7c34c7	-0.0038483606
175	0x3b797f45	0.0038070243
176	0xbd128994	-0.035775736
177	0x3ceff72b	0.029292664
178	0x3c0ded79	0.008662575
179	0xbdf03e4d	-0.11730633
180	0x3d2ee78f	0.0427013
181	0x3dbfae9c	0.09359476
182	0x3dd91495	0.10599629
183	0x3df511c8	0.11966282
184	0xbe7eeff2	-0.2489622
185	0xbe6fac36	-0.23405537
186	0xbed7cd2f	-0.4214873
187	0xbeed38e4	-0.46332467
188	0xbcc24c6c	-0.023718081
189	0xbba38956	-0.004990737
190	0xbbd07fb4	-0.0063628796
191	0x3cd8c95d	0.026463205
192	0xbedb3773	-0.42815742
193	0xbe5caa56	-0.21549353
194	0xbe947515	-0.28995577
195	0xbe7a8c62	-0.24467614
196	0xbe6d1716	-0.23153338
197	0xbeacbe44	-0.3373891
198	0xbdd210a0	-0.10257077
199	0xbdec944d	-0.11551724
200	0x3ddaefcc	0.10690269
201	0x3dfeb23a	0.12436338
202	0xbd5bdfc4	-0.053680196
203	0xbdef91db	-0.116977416
204	0xbcb48df8	-0.022040352
205	0x3d013915	0.03154858
206	0x3cf79e54	0.030226864
207	0x3cf73fc0	0.030181766
208	0x3e1cbd0c	0.1530649
209	0x3e327943	0.1742907
210	0x3d229856	0.03969606
211	0x3db4f62d	0.08836017
212	0xbd8ac38d	-0.067755796
213	0xbe7eb689	-0.24874319
214	0xbc9f0120	-0.019409716
215	0xbd6bd9cd	-0.057580758
216	0x3db4b8ae	0.08824287
217	0x3df9b7c0	0.12193251
218	0x3d755c8a	0.059902705
219	0xbc13506b	-0.008991341
220	0x3d18c459	0.037296627
221	0xbd37adf4	-0.04484363
222	0x3c5c3851	0.013441161
223	0xbda7747c	-0.081765145
224	0xbde3b17f	-0.11117839
225	0xbe94ab81	-0.29037097
226	0x3e90651d	0.28202143
227	0x3e115638	0.14193046
228	0x3d2cef16	0.042220198
229	0x3e8131eb	0.25233397
230	0xbe041eec	-0.12902421
231	0xbdbabe8b	-0.091183744
232	0x3c1f7f1c	0.009734895
233	0xbcffae26	-0.03121097
234	0x3d4527b3	0.048133563
235	0x3c430660	0.011903375
236	0x3d8d6e1d	0.06905768
237	0x3e31b7e4	0.17355305
238	0xbc938ce0	-0.01801151
239	0x3bcd5192	0.0062658275
240	0x3cdf9cb1	0.027296396
241	0x3de5f37b	0.11228081
242	0xbc14116c	-0.009037357
243	0xbcb1d9cd	-0.0217103
244	0xbce0d631	-0.027445884
245	0x3c46cebf	0.012134253
246	0xbb1c0634	-0.0023807408
247	0xbcc1849a	-0.0236228
248	0x3b31051b	0.00270111
249	0x3d710584	0.05884315
250	0xbcbdd8be	-0.02317464
251	0x3b1aafac	0.0023603244
252	0xbd532f24	-0.05155863
253	0xbe0a1b29	-0.13486923
254	0x3d99cb7f	0.07509517
255	0xbb8aa929	-0.0042315912

cv5.bias f4 [64]
0	0x3c6274b5	0.01382177
1	0x3e30b225	0.17255457
2	0x3d9a4ddc	0.07534382
3	0xbd3d2570	-0.04617828
4	0x3e9d8657	0.30766556
5	0x3cf508f8	0.029911503
6	0x3e27b51b	0.1637768
7	0x3d9b1fea	0.075744465
8	0x3999b759	0.0002931904
9	0x3d779c35	0.060451705
10	0x3daf1fb5	0.085509695
11	0xbb437ec7	-0.0029830204
12	0x3d99954c	0.07499179
13	0xbc1d6b17	-0.009608052
14	0x3da8a396	0.082343265
15	0x3d14d246	0.036333345
16	0xbc620183	-0.013794306
17	0x3de4b6a9	0.11167652
18	0x3ddfb9fe	0.10924147
19	0x3ddf357e	0.10898875
20	0x3da54112	0.08069052
21	0x3dba4384	0.09094909
22	0xbd2ab22a	-0.041673817
23	0xbcc5b2da	-0.024133135
24	0x3d98bb1b	0.074575625
25	0x3cc24fb5	0.023719648
26	0x3d295208	0.041337997
27	0xbe630356	-0.22169241
28	0x3df0ba5f	0.117542975
29	0x3d9cad06	0.07650189
30	0x3d92ba2b	0.07164415
31	0x3d01abbc	0.03165792
32	0x3dd5c9b7	0.10438865
33	0x3e884183	0.2661248
34	0x3d07859b	0.0330864
35	0x3d193951	0.037408177
36	0xbd0b07e9	-0.03394309
37	0x3d8bbd82	0.06823255
38	0x3db0f3bf	0.08640241
39	0x3dff5a3a	0.12468381
40	0x3df9c080	0.121949196
41	0x3c85e0bb	0.016342511
42	0xbbb95d83	-0.0056568994
43	0x3dadd87a	0.08488555
44	0x3ac7a2bb	0.0015230993
45	0x3d93dd12	0.072199
46	0x3e16754b	0.14693181
47	0x3d5efe8a	0.054441966
48	0x3d84f869	0.06492693
49	0x3dc77b2b	0.09740289
50	0x3da259d3	0.07927289
51	0x3c77e9bc	0.01513141
52	0xbdecfd6b	-0.11571773
53	0xbc76c63b	-0.01506191
54	0xbbc0aa88	-0.005879704
55	0xbc8396e2	-0.016063157
56	0x3ddbdd5e	0.10735582
57	0x3daa8f07	0.083280616
58	0x3dc3a30b	0.09552582
59	0x3d002904	0.031289116
60	0x3db26be9	0.087119885
61	0xbc8b4744	-0.017001756
62	0x3dd7447d	0.1051111
63	0x3e68c3d0	0.22730947

cv6.weight f4 [4, 64, 3, 3]
0	0x3d55eeea	0.0522298
1	0x3ded8e1f	0.11599373
2	0x3d953045	0.07284597
3	0x3deb129d	0.114781596
4	0x3e27709e	0.16351554
5	0x3de056a9	0.10954029
6	0x3d14fa22	0.036371358
7	0x3e62b86f	0.22140668
8	0x3e09bd68	0.13451159
9	0xbd20fea9	-0.039305363
10	0xbd3453d2	-0.04402525
11	0x3b066c53	0.0020511344
12	0xbd19333f	-0.037402388
13	0x3ea40927	0.32038233
14	0xbd3b2590	-0.04569012
15	0x3a8599c9	0.0010192926
16	0x3cc5ad97	0.024130626
17	0xbb7f57ee	-0.0038962322
18	0x3cf28528	0.02960451
19	0xbd8ce6b3	-0.0687994
20	0x3cee477e	0.029086825
21	0xbdb38a2a	-0.08766587
22	0x3df6b521	0.12046266
23	0xbc38d02a	-0.011280099
24	0x3b821128	0.0039693303
25	0xbe05a46e	-0.13051006
26	0xbcffb6a5	-0.031215021
27	0x3b4125e1	0.002947204
28	0x3d377a94	0.044794634
29	0x3b197f8f	0.0023421978
30	0xbe015f00	-0.12633896
31	0xbeaae2ca	-0.3337615
32	0xbc20017c	-0.009765979
33	0xbda418ae	-0.0801252
34	0x3e255479	0.16145505
35	0x3b2d4a0f	0.0026441847
36	0xbd4f9f25	-0.05068888
37	0x3d51213f	0.051057097
38	0xbd5ce088	-0.053925067
39	0x3d2153c0	0.03938651
40	0x3d6cc79b	0.057807546
41	0xbd546c13	-0.05186088
42	0xbbcaa715	-0.0061844685
43	0xbc8779bd	-0.016537542
44	0x3d48b7e0	0.049003482
45	0xbbb0a58a	-0.0053908275
46	0x3b1815ff	0.002320647
47	0xbd47be62	-0.048765548
48	0x3daf2ca3	0.08553436
49	0x3da3e86b	0.080033146
50	0x3d05d5c1	0.032674555
51	0xbdf9e9b2	-0.12202777
52	0x3db5e7b4	0.088820845
53	0xbd9bbc53	-0.07604279
54	0xbc5586b5	-0.013032605
55	0x3cf59c5b	0.029981783
56	0xbd15236e	-0.03641074
57	0xbe099ee8	-0.13439524
58	0x3e57c1a7	0.21069966
59	0x3da7bc82	0.08190252
60	0x3cc3b028	0.023887709
61	0xbdfa6977	-0.12227147
62	0xbd16d14c	-0.036820695
63	0xbc86cb29	-0.016454296
64	0xbcd2f81e	-0.025753077
65	0x3c3c16db	0.011480059
66	0x3d516f0f	0.051131304
67	0x3e2c0d9e	0.1680207
68	0x3d8d6e3a	0.0690579
69	0xbcc89a79	-0.02448772
70	0xbe29c33c	-0.16578382
71	0xbd0d70d4	-0.03453143
72	0xbd21f3ab	-0.03953902
73	0xbd8aef63	-0.06783941
74	0x3d64ab37	0.055827346
75	0xbceab91a	-0.028652716
76	0x3ccad1ab	0.02475818
77	0x3c8828b1	0.016620966
78	0xbe047b58	-0.12937677
79	0xbba1c693	-0.004937002
80	0xbcb34134	-0.021881677
81	0xbcfaaeb7	-0.030600889
82	0x3d3c4fed	0.04597466
83	0x3ce18add	0.027532035
84	0x3e02f5a9	0.12789024
85	0xbd00a38e	-0.031405978
86	0xbd580522	-0.05273927
87	0x3cd84aca	0.02640285
88	0xbbe74d56	-0.0070587797
89	0xbcf77dbc	-0.030211322
90	0x3cca1553	0.024668371
91	0xbc1e26da	-0.009652818
92	0xbca2fcf8	-0.019896016
93	0xbe11baf4	-0.14231473
94	0x3f256bf6	0.6461786
95	0xbd5c1a3f	-0.053735968
96	0x3d7443b9	0.059634898
97	0xbcf7940d	-0.030221963
98	0x3c9adb7a	0.018903483
99	0xbc427592	-0.011868851
100	0x3dad6179	0.08465857
101	0xbc7d54de	-0.015462128
102	0xbde29133	-0.11062851
103	0x3f03bbf3	0.5145866
104	0xbe2d002f	-0.16894601
105	0xbcc25f1f	-0.023726998
106	0xbaa9f116	-0.0012965526
107	0x3d4a42cf	0.04938012
108	0x3d45b22c	0.04826562
109	0x3e0bbad3	0.13645487
110	0xbc5253c1	-0.012837351
111	0x3c26a74d	0.010171724
112	0x3f10c5ec	0.56552005
113	0xbd60ef05	-0.054915447
114	0x3d621f7c	0.055205807
115	0x3e0ab3b1	0.1354511
116	0x3cec0953	0.02881304
117	0x3c40876d	0.011751038
118	0x3c105b7a	0.008810872
119	0xbc23f907	-0.010008103
120	0x3c70686c	0.014673334
121	0x3dbb999d	0.09160159
122	0xbcfb6a6f	-0.0306904
123	0xbc95c494	-0.018282212
124	0xbdc620b4	-0.096742064
125	0xbda45a20	-0.080250025
126	0xbcd4d265	-0.02597923
127	0xbd71ac51	-0.059002224
128	0xba36867c	-0.0006962789
129	0x3cc03450	0.023462445
130	0xbe1937c3	-0.14962678
131	0x3ce950c3	0.028480893
132	0xbdcc4980	-0.099749565
133	0xbdf9211e	-0.1216452
134	0xbca3865c	-0.019961528
135	0x3cedc8b6	0.02902637
136	0x3d0a7bab	0.033809345
137	0x3cfed39a	0.031106759
138	0x3cd054ff	0.025431154
139	0xbd759440	-0.059955835
140	0x3c3e6e6f	0.011623009
141	0x3beb6412	0.00718356
142	0x3eaca7bb	0.33721718
143	0x3d14750a	0.03624443
144	0xbdac17c2	-0.08402969
145	0xbe0e6709	-0.13906492
146	0xbcca8dbc	-0.024725787
147	0x3e683193	0.22675161
148	0x3e921aa3	0.28535947
149	0x3de46174	0.111514
150	0xbe0f7d2b	-0.14012592
151	0xbe2c3e09	-0.1682054
152	0xbd014ecb	-0.031569283
153	0x3d1b6505	0.037938137
154	0x3cdd38fd	0.027004713
155	0x3cc8da77	0.024518235
156	0x3e315200	0.17316437
157	0x3e47fdfc	0.19530481
158	0x3c546ce8	0.012965418
159	0xbd6849d9	-0.05671105
160	0xbda3220f	-0.079654805
161	0xbbbfe382	-0.0058559785
162	0xbc3cf18c	-0.011532199
163	0x3d0073f6	0.03136059
164	0xbce52f76	-0.027976733
165	0xbc31fed0	-0.010863975
166	0x3dc15fad	0.09442077
167	0xbe060a6a	-0.1308991
168	0xbd0b4b74	-0.034007505
169	0xbe12ef5f	-0.14349125
170	0x3d60fca4	0.054928437
171	0x3d90692f	0.07051312
172	0xba7fe6c6	-0.0009761866
173	0x3cd8ef22	0.026481215
174	0x3dcba13e	0.09942864
175	0xba973ce8	-0.0011538537
176	0x3d7c2915	0.061562616
177	0x3c75d565	0.0150044905
178	0x3dfe011c	0.12402555
179	0x3d66dfe6	0.05636587
180	0x3d8e7f75	0.06957904
181	0x3d454638	0.04816267
182	0x3b50fdd6	0.003188958
183	0x3e28fbbb	0.16502278
184	0x3ec90e28	0.39268613
185	0x3dc79532	0.097452536
186	0x3d97a7d7	0.0740506
187	0x3e2c58c3	0.16830735
188	0x3c9e171f	0.019298134
189	0xbd151024	-0.036392346
190	0xbd53f60d	-0.051748324
191	0x3cebce13	0.028784787
192	0x3e24de84	0.16100508
193	0xbba9770b	-0.0051716617
194	0xbd30d6a1	-0.043173436
195	0x3c6e7f30	0.014556691
196	0x3d5b9324	0.05360712
197	0xbc85c05c	-0.016327076
198	0x3ceaf389	0.02868058
199	0x3d817418	0.06320971
200	0x3d8809ee	0.06642519
201	0x3d8720a6	0.06598024
202	0xbec4f747	-0.38469908
203	0xbdc750dc	-0.097322196
204	0x3d108e2d	0.03529184
205	0xbd9dd4d9	-0.07706613
206	0x3e1503d2	0.14552239
207	0x3cc65e6c	0.024214946
208	0x3cb239d6	0.021756094
209	0x3d6fecc0	0.05857539
210	0xbd3eeb48	-0.0466111
211	0x3e184fbb	0.14874165
212	0x3da56b3a	0.080770925
213	0x3d663b63	0.05620898
214	0x3e337006	0.17523202
215	0x3dd67f30	0.10473478
216	0xbd4b21f8	-0.049592942
217	0x3d5a64ec	0.053318903
218	0xbc9f49cf	-0.019444374
219	0xbde2963e	-0.11063813
220	0x3eb0ff4a	0.3456977
221	0x3d8755bf	0.06608152
222	0x3d28351b	0.04106627
223	0x3eb90240	0.3613453
224	0xbc3792eb	-0.011204462
225	0xbdd6dfc9	-0.104919024
226	0x3c9baf5b	0.019004514
227	0xbc8957f2	-0.016765568
228	0xbd069eff	-0.032866474
229	0x3db6ae6f	0.08919989
230	0xbd6df469	-0.058094416
231	0xbd89b8e4	-0.06724718
232	0x3c9aa079	0.018875347
233	0xbdb193dd	-0.08670781
234	0xbb7d3045	-0.0038633507
235	0x3d07eb28	0.033183247
236	0xbd1e23b8	-0.038608283
237	0xbbfbca41	-0.0076840227
238	0x3d8c1bb2	0.0684122
239	0xbda4707e	-0.08029269
240	0x3c8e59ad	0.017376745
241	0xbd19ade2	-0.037519343
242	0xbdca27a0	-0.09870839
243	0xbd95330f	-0.07285129
244	0x3c711eab	0.0147167845
245	0xbce19de5	-0.02754111
246	0x3d2a0601	0.041509632
247	0x3e9a18e7	0.30097124
248	0x3dcc366a	0.09971316
249	0x3cad8050	0.021179348
250	0x3dbc9a42	0.0920911
251	0xbd37f919	-0.044915292
252	0x3d3e6e42	0.04649187
253	0x3cb3a54a	0.021929402
254	0x3d1bd10b	0.038041156
255	0x3e2d1570	0.16902709

cv6.bias f4 [4]
0	0x3b79cbc4	0.0038115839
1	0xbca5b59d	-0.020228202
2	0x3d6e2a3a	0.05814574
3	0x3d7d2afd	0.061808575
